----------------------------------------------
---NO ZONES
----------------------------------------------
Net(
  (seq): Sequential(
    (0): Linear(in_features=9, out_features=32, bias=True)
    (1): ReLU()
    (2): Dropout(p=0.0, inplace=False)
    (3): Linear(in_features=32, out_features=16, bias=True)
    (4): ReLU()
    (5): Dropout(p=0.0, inplace=False)
    (6): Linear(in_features=16, out_features=1, bias=True)
  )
) 865
Test R2: 0.11716675796854115
F1-score: 0.08630393996247654
Test R2: 0.11622411190083981
F1-score: 0.09087119633180492
Test R2: 0.114128641657958
F1-score: 0.07858793864257198
Test R2: 0.11569533504058171
F1-score: 0.08838857619345424
Test R2: 0.11716908207437582
F1-score: 0.09470636889991729
Time spent: 565.0871450901031



----------------------------------------------
---ADD ZONES
----------------------------------------------
Net(
  (seq): Sequential(
    (0): Linear(in_features=265, out_features=128, bias=True)
    (1): ReLU()
    (2): Dropout(p=0.2, inplace=False)
    (3): Linear(in_features=128, out_features=64, bias=True)
    (4): ReLU()
    (5): Dropout(p=0.2, inplace=False)
    (6): Linear(in_features=64, out_features=1, bias=True)
  )
) 42369
Test R2: 0.2377477696322997
F1-score: 0.29372096508317097
Test R2: 0.23920935160127454
F1-score: 0.29665215433118153
Test R2: 0.23733773839469996
F1-score: 0.2882664647993944
Test R2: 0.2377756888010628
F1-score: 0.288293710502558
Test R2: 0.23770063103687245
F1-score: 0.300507311250373
Time spent: 1745.1329367160797



----------------------------------------------
---ADD ENCODED ZONES
----------------------------------------------
Net(
  (seq): Sequential(
    (0): Linear(in_features=10, out_features=128, bias=True)
    (1): ReLU()
    (2): Dropout(p=0.2, inplace=False)
    (3): Linear(in_features=128, out_features=64, bias=True)
    (4): ReLU()
    (5): Dropout(p=0.2, inplace=False)
    (6): Linear(in_features=64, out_features=1, bias=True)
  )
) 9729
Test R2: 0.20893772582314518
F1-score: 0.22344139650872819
Test R2: 0.21515157064111345
F1-score: 0.2364920348168829
Test R2: 0.2161664806288931
F1-score: 0.23690280065897856
Test R2: 0.20798856404161536
F1-score: 0.2218151540383014
Test R2: 0.215840040689512
F1-score: 0.24154746423927176
Time spent: 4107.458472967148



----------------------------------------------
---ADD WEATHER AND DIST
----------------------------------------------
Net(
  (seq): Sequential(
    (0): Linear(in_features=17, out_features=128, bias=True)
    (1): ReLU()
    (2): Dropout(p=0.2, inplace=False)
    (3): Linear(in_features=128, out_features=64, bias=True)
    (4): ReLU()
    (5): Dropout(p=0.2, inplace=False)
    (6): Linear(in_features=64, out_features=1, bias=True)
  )
) 10625
Test R2: 0.1445258144255619
F1-score: 0.08322981366459628
Test R2: 0.14637834260191063
F1-score: 0.09438202247191012
Test R2: 0.14361858336764544
F1-score: 0.07913818106484358
Test R2: 0.14714225107018897
F1-score: 0.09568595379268043
Test R2: 0.14299816939784638
F1-score: 0.08357348703170028
Time spent: 5575.828666687012



----------------------------------------------
---WITH ALL
----------------------------------------------
Net(
  (seq): Sequential(
    (0): Linear(in_features=273, out_features=32, bias=True)
    (1): ReLU()
    (2): Dropout(p=0.1, inplace=False)
    (3): Linear(in_features=32, out_features=16, bias=True)
    (4): ReLU()
    (5): Dropout(p=0.1, inplace=False)
    (6): Linear(in_features=16, out_features=1, bias=True)
  )
) 9313
Test R2: 0.23984796777261552
F1-score: 0.2789400278940028
Test R2: 0.23900743120513313
F1-score: 0.2779418622726566
Test R2: 0.23778936702620257
F1-score: 0.2759368225456798
Test R2: 0.2375415960797802
F1-score: 0.275797373358349
Test R2: 0.23713479846556584
F1-score: 0.27203718048024783
Time spent: 6882.496026277542



----------------------------------------------
---WITH ALL AND ENCODED
----------------------------------------------
Net(
  (seq): Sequential(
    (0): Linear(in_features=18, out_features=32, bias=True)
    (1): ReLU()
    (2): Dropout(p=0.0, inplace=False)
    (3): Linear(in_features=32, out_features=16, bias=True)
    (4): ReLU()
    (5): Dropout(p=0.0, inplace=False)
    (6): Linear(in_features=16, out_features=1, bias=True)
  )
) 1153
Test R2: 0.2142957842717279
F1-score: 0.233983286908078
Test R2: 0.2135785968444327
F1-score: 0.22797756516001322
Test R2: 0.2110672649933606
F1-score: 0.22444555611138906
Test R2: 0.21352848296366822
F1-score: 0.2303630363036303
Test R2: 0.22065869801916738
F1-score: 0.2410816093826356
Time spent: 9613.00926041603



