----------------------------------------------
---NO ZONES
----------------------------------------------
Net(
  (seq): Sequential(
    (0): Linear(in_features=9, out_features=32, bias=True)
    (1): ReLU()
    (2): Dropout(p=0.0, inplace=False)
    (3): Linear(in_features=32, out_features=1, bias=True)
  )
) 353
Test R2: 0.11106294438694786
F1-score: 0.03757920034957395


Net(
  (seq): Sequential(
    (0): Linear(in_features=9, out_features=32, bias=True)
    (1): ReLU()
    (2): Dropout(p=0.0, inplace=False)
    (3): Linear(in_features=32, out_features=16, bias=True)
    (4): ReLU()
    (5): Dropout(p=0.0, inplace=False)
    (6): Linear(in_features=16, out_features=1, bias=True)
  )
) 865
Test R2: 0.1147285867058182
F1-score: 0.078125


Net(
  (seq): Sequential(
    (0): Linear(in_features=9, out_features=128, bias=True)
    (1): ReLU()
    (2): Dropout(p=0.0, inplace=False)
    (3): Linear(in_features=128, out_features=64, bias=True)
    (4): ReLU()
    (5): Dropout(p=0.0, inplace=False)
    (6): Linear(in_features=64, out_features=1, bias=True)
  )
) 9601
Test R2: 0.11277250779977932
F1-score: 0.06050203818922977


Time spent: 270.2796251773834



----------------------------------------------
---ADD ZONES
----------------------------------------------
Net(
  (seq): Sequential(
    (0): Linear(in_features=265, out_features=32, bias=True)
    (1): ReLU()
    (2): Dropout(p=0.2, inplace=False)
    (3): Linear(in_features=32, out_features=1, bias=True)
  )
) 8545
Test R2: 0.23203391684624297
F1-score: 0.23600000000000002


Net(
  (seq): Sequential(
    (0): Linear(in_features=265, out_features=32, bias=True)
    (1): ReLU()
    (2): Dropout(p=0.2, inplace=False)
    (3): Linear(in_features=32, out_features=16, bias=True)
    (4): ReLU()
    (5): Dropout(p=0.1, inplace=False)
    (6): Linear(in_features=16, out_features=1, bias=True)
  )
) 9057
Test R2: 0.23633321897050452
F1-score: 0.26208651399491095


Net(
  (seq): Sequential(
    (0): Linear(in_features=265, out_features=128, bias=True)
    (1): ReLU()
    (2): Dropout(p=0.2, inplace=False)
    (3): Linear(in_features=128, out_features=64, bias=True)
    (4): ReLU()
    (5): Dropout(p=0.2, inplace=False)
    (6): Linear(in_features=64, out_features=1, bias=True)
  )
) 42369
Test R2: 0.23762225433628936
F1-score: 0.2890801993656547


Time spent: 1325.461169242859



----------------------------------------------
---ADD ENCODED ZONES
----------------------------------------------
Net(
  (seq): Sequential(
    (0): Linear(in_features=10, out_features=32, bias=True)
    (1): ReLU()
    (2): Dropout(p=0.0, inplace=False)
    (3): Linear(in_features=32, out_features=16, bias=True)
    (4): ReLU()
    (5): Dropout(p=0.2, inplace=False)
    (6): Linear(in_features=16, out_features=1, bias=True)
  )
) 897
Test R2: 0.20669028106418064
F1-score: 0.20742506811989106
(

Net(
  (seq): Sequential(
    (0): Linear(in_features=10, out_features=128, bias=True)
    (1): ReLU()
    (2): Dropout(p=0.2, inplace=False)
    (3): Linear(in_features=128, out_features=64, bias=True)
    (4): ReLU()
    (5): Dropout(p=0.2, inplace=False)
    (6): Linear(in_features=64, out_features=1, bias=True)
  )
) 9729
Test R2: 0.2133567123277278
F1-score: 0.23031105228325613
(

Net(
  (seq): Sequential(
    (0): Linear(in_features=10, out_features=128, bias=True)
    (1): ReLU()
    (2): Dropout(p=0.0, inplace=False)
    (3): Linear(in_features=128, out_features=128, bias=True)
    (4): ReLU()
    (5): Dropout(p=0.2, inplace=False)
    (6): Linear(in_features=128, out_features=64, bias=True)
    (7): ReLU()
    (8): Dropout(p=0.2, inplace=False)
    (9): Linear(in_features=64, out_features=1, bias=True)
  )
) 26241
Test R2: 0.2204814872473344
F1-score: 0.25250242169841786


Time spent: 2725.16498875618



----------------------------------------------
---ADD WEATHER AND DIST
----------------------------------------------
Net(
  (seq): Sequential(
    (0): Linear(in_features=17, out_features=32, bias=True)
    (1): ReLU()
    (2): Dropout(p=0.1, inplace=False)
    (3): Linear(in_features=32, out_features=32, bias=True)
    (4): ReLU()
    (5): Dropout(p=0.2, inplace=False)
    (6): Linear(in_features=32, out_features=1, bias=True)
  )
) 1665
Test R2: 0.14249276649119103
F1-score: 0.07849617847552158


Net(
  (seq): Sequential(
    (0): Linear(in_features=17, out_features=128, bias=True)
    (1): ReLU()
    (2): Dropout(p=0.2, inplace=False)
    (3): Linear(in_features=128, out_features=64, bias=True)
    (4): ReLU()
    (5): Dropout(p=0.2, inplace=False)
    (6): Linear(in_features=64, out_features=1, bias=True)
  )
) 10625
Test R2: 0.14501048511791992
F1-score: 0.08838643371017472


Net(
  (seq): Sequential(
    (0): Linear(in_features=17, out_features=128, bias=True)
    (1): ReLU()
    (2): Dropout(p=0.0, inplace=False)
    (3): Linear(in_features=128, out_features=128, bias=True)
    (4): ReLU()
    (5): Dropout(p=0.2, inplace=False)
    (6): Linear(in_features=128, out_features=64, bias=True)
    (7): ReLU()
    (8): Dropout(p=0.2, inplace=False)
    (9): Linear(in_features=64, out_features=1, bias=True)
  )
) 27137
Test R2: 0.13991516053537212
F1-score: 0.10572687224669604


Time spent: 799.5936634540558



----------------------------------------------
---WITH ALL
----------------------------------------------
Net(
  (seq): Sequential(
    (0): Linear(in_features=273, out_features=16, bias=True)
    (1): ReLU()
    (2): Dropout(p=0.1, inplace=False)
    (3): Linear(in_features=16, out_features=16, bias=True)
    (4): ReLU()
    (5): Dropout(p=0.1, inplace=False)
    (6): Linear(in_features=16, out_features=1, bias=True)
  )
) 4673
Test R2: 0.23652959715286115
F1-score: 0.2618626347112755


Net(
  (seq): Sequential(
    (0): Linear(in_features=273, out_features=32, bias=True)
    (1): ReLU()
    (2): Dropout(p=0.1, inplace=False)
    (3): Linear(in_features=32, out_features=16, bias=True)
    (4): ReLU()
    (5): Dropout(p=0.1, inplace=False)
    (6): Linear(in_features=16, out_features=1, bias=True)
  )
) 9313
Test R2: 0.23714839415075584
F1-score: 0.2761389961389961


Net(
  (seq): Sequential(
    (0): Linear(in_features=273, out_features=128, bias=True)
    (1): ReLU()
    (2): Dropout(p=0.1, inplace=False)
    (3): Linear(in_features=128, out_features=64, bias=True)
    (4): ReLU()
    (5): Dropout(p=0.1, inplace=False)
    (6): Linear(in_features=64, out_features=1, bias=True)
  )
) 43393
Test R2: 0.2382959397433425
F1-score: 0.29591836734693877


Time spent: 1580.0158824920654



----------------------------------------------
---WITH ALL AND ENCODED
----------------------------------------------
Net(
  (seq): Sequential(
    (0): Linear(in_features=18, out_features=16, bias=True)
    (1): ReLU()
    (2): Dropout(p=0.0, inplace=False)
    (3): Linear(in_features=16, out_features=16, bias=True)
    (4): ReLU()
    (5): Dropout(p=0.0, inplace=False)
    (6): Linear(in_features=16, out_features=1, bias=True)
  )
) 593
Test R2: 0.20894502418362326
F1-score: 0.21695594125500667


Net(
  (seq): Sequential(
    (0): Linear(in_features=18, out_features=32, bias=True)
    (1): ReLU()
    (2): Dropout(p=0.0, inplace=False)
    (3): Linear(in_features=32, out_features=16, bias=True)
    (4): ReLU()
    (5): Dropout(p=0.0, inplace=False)
    (6): Linear(in_features=16, out_features=1, bias=True)
  )
) 1153
Test R2: 0.21222691960074214
F1-score: 0.22277722277722276


Net(
  (seq): Sequential(
    (0): Linear(in_features=18, out_features=128, bias=True)
    (1): ReLU()
    (2): Dropout(p=0.0, inplace=False)
    (3): Linear(in_features=128, out_features=64, bias=True)
    (4): ReLU()
    (5): Dropout(p=0.2, inplace=False)
    (6): Linear(in_features=64, out_features=1, bias=True)
  )
) 10753
Test R2: 0.22100668459790918
F1-score: 0.24433946896888745


Time spent: 3027.426382303238

