              total        used        free      shared  buff/cache   available
Mem:         128678       29668       66115         256       32895       97540
Swap:          2047         163        1884

Time spent: 1302.1561875343323
GCN(
  (convM): Sequential(
    (0): NNNConv(
    (mlp): Sequential(
      (0): Linear(in_features=36, out_features=64, bias=True)
      (1): ReLU()
      (2): Linear(in_features=64, out_features=64, bias=True)
    )
  )
    (1): ReLU(inplace=True)
    (2): Dropout(p=0.25, inplace=False)
  )
  (convA): Sequential(
    (0): NNNConv(
    (mlp): Sequential(
      (0): Linear(in_features=36, out_features=64, bias=True)
      (1): ReLU()
      (2): Linear(in_features=64, out_features=64, bias=True)
    )
  )
    (1): ReLU(inplace=True)
    (2): Dropout(p=0.2, inplace=False)
  )
  (linS): Sequential(
    (0): Linear(18, 64, bias=True)
    (1): ReLU(inplace=True)
    (2): Dropout(p=0.2, inplace=False)
  )
  (seq): Sequential(
    (0): Linear(192, 64, bias=True)
    (1): ReLU(inplace=True)
    (2): Dropout(p=0.2, inplace=False)
    (3): Linear(64, 1, bias=True)
  )
) 26689
Start learning
Epoch  1: Train Loss -0.148544, Valid Loss -0.205710, Train R2 0.211086, Valid R2 0.206159
Epoch  2: Train Loss -0.202702, Valid Loss -0.211725, Train R2 0.219397, Valid R2 0.211526
Epoch  3: Train Loss -0.207023, Valid Loss -0.215764, Train R2 0.223169, Valid R2 0.217312
Epoch  4: Train Loss -0.212604, Valid Loss -0.215758, Train R2 0.224852, Valid R2 0.215956
…
Epoch 56: Train Loss -0.267589 , Valid Loss -0.229947 , Train R2 0.288265, Valid R2 0.230711
-----------------------------------
Best val R2: 0.2392157325023897
Test score: 0.2304899304019672
              precision    recall  f1-score   support

       Under       0.88      0.96      0.92     26725
        Over       0.44      0.19      0.27      4420

    accuracy                           0.85     31145
   macro avg       0.66      0.58      0.59     31145
weighted avg       0.82      0.85      0.82     31145

Time Spent: 3932.479557275772




GCN(
  (convM): Sequential(
    (0): NNNConv(
    (mlp): Sequential(
      (0): Linear(in_features=36, out_features=32, bias=True)
      (1): ReLU()
      (2): Linear(in_features=32, out_features=32, bias=True)
    )
  )
    (1): ReLU(inplace=True)
    (2): Dropout(p=0.1, inplace=False)
  )
  (convA): Sequential(
    (0): NNNConv(
    (mlp): Sequential(
      (0): Linear(in_features=36, out_features=32, bias=True)
      (1): ReLU()
      (2): Linear(in_features=32, out_features=32, bias=True)
    )
  )
    (1): ReLU(inplace=True)
    (2): Dropout(p=0.1, inplace=False)
  )
  (linS): Sequential(
    (0): Linear(18, 32, bias=True)
    (1): ReLU(inplace=True)
    (2): Dropout(p=0.1, inplace=False)
  )
  (seq): Sequential(
    (0): Linear(96, 48, bias=True)
    (1): ReLU(inplace=True)
    (2): Dropout(p=0.2, inplace=False)
    (3): Linear(48, 1, bias=True)
  )
) 9793
Start learning
Epoch  1: Train Loss -0.109942, Valid Loss -0.198192, Train R2 0.204896, Valid R2 0.198551
Epoch  2: Train Loss -0.197338, Valid Loss -0.204462, Train R2 0.214637, Valid R2 0.206456
Epoch  3: Train Loss -0.206471, Valid Loss -0.215670, Train R2 0.222496, Valid R2 0.215400
Epoch  4: Train Loss -0.208559, Valid Loss -0.218030, Train R2 0.225766, Valid R2 0.218677
…
Epoch 74: Train Loss -0.259776 , Valid Loss -0.232814 , Train R2 0.276739, Valid R2 0.234407
-----------------------------------
Best val R2: 0.23583789206729688
Test score: 0.22879004195824615
              precision    recall  f1-score   support

       Under       0.88      0.96      0.92     26725
        Over       0.44      0.21      0.28      4420

    accuracy                           0.85     31145
   macro avg       0.66      0.58      0.60     31145
weighted avg       0.82      0.85      0.83     31145

Time Spent: 6550.298479795456




GCN(
  (convM): Sequential(
    (0): NNNConv(
    (mlp): Sequential(
      (0): Linear(in_features=36, out_features=16, bias=True)
      (1): ReLU()
      (2): Linear(in_features=16, out_features=16, bias=True)
    )
  )
    (1): ReLU(inplace=True)
    (2): Dropout(p=0.1, inplace=False)
  )
  (convA): Sequential(
    (0): NNNConv(
    (mlp): Sequential(
      (0): Linear(in_features=36, out_features=16, bias=True)
      (1): ReLU()
      (2): Linear(in_features=16, out_features=16, bias=True)
    )
  )
    (1): ReLU(inplace=True)
    (2): Dropout(p=0.1, inplace=False)
  )
  (linS): Sequential(
    (0): Linear(18, 16, bias=True)
    (1): ReLU(inplace=True)
    (2): Dropout(p=0.1, inplace=False)
  )
  (seq): Sequential(
    (0): Linear(48, 16, bias=True)
    (1): ReLU(inplace=True)
    (2): Dropout(p=0.1, inplace=False)
    (3): Linear(16, 1, bias=True)
  )
) 2833
Start learning
Epoch  1: Train Loss -0.023846, Valid Loss -0.191338, Train R2 0.196895, Valid R2 0.192447
Epoch  2: Train Loss -0.184907, Valid Loss -0.201380, Train R2 0.206816, Valid R2 0.201765
Epoch  3: Train Loss -0.186550, Valid Loss -0.207113, Train R2 0.212061, Valid R2 0.207219
Epoch  4: Train Loss -0.194905, Valid Loss -0.210298, Train R2 0.215692, Valid R2 0.211227
…
