              total        used        free      shared  buff/cache   available
Mem:         128678       72671       23096         256       32910       54536
Swap:          2047         163        1884

Time spent: 1074.0441663265228
GCN(
  (convM): Sequential(
    (0): NNNConv(
    (mlp): Sequential(
      (0): Linear(in_features=546, out_features=16, bias=True)
      (1): ReLU()
      (2): Linear(in_features=16, out_features=16, bias=True)
    )
  )
    (1): ReLU(inplace=True)
    (2): Dropout(p=0.1, inplace=False)
  )
  (convA): Sequential(
    (0): NNNConv(
    (mlp): Sequential(
      (0): Linear(in_features=546, out_features=16, bias=True)
      (1): ReLU()
      (2): Linear(in_features=16, out_features=16, bias=True)
    )
  )
    (1): ReLU(inplace=True)
    (2): Dropout(p=0.1, inplace=False)
  )
  (linS): Sequential(
    (0): Linear(273, 16, bias=True)
    (1): ReLU(inplace=True)
    (2): Dropout(p=0.1, inplace=False)
  )
  (seq): Sequential(
    (0): Linear(48, 16, bias=True)
    (1): ReLU(inplace=True)
    (2): Dropout(p=0.2, inplace=False)
    (3): Linear(16, 1, bias=True)
  )
) 23233
Start learning
Epoch  1: Train Loss -0.121190, Valid Loss -0.202440, Train R2 0.221237, Valid R2 0.207011
Epoch  2: Train Loss -0.199624, Valid Loss -0.222017, Train R2 0.242351, Valid R2 0.224260
Epoch  3: Train Loss -0.212596, Valid Loss -0.219391, Train R2 0.234829, Valid R2 0.218529
Epoch  4: Train Loss -0.222007, Valid Loss -0.231799, Train R2 0.258597, Valid R2 0.237368
…
Epoch 35: Train Loss -0.329356 , Valid Loss -0.213612 , Train R2 0.370943, Valid R2 0.221726
-----------------------------------
Best val R2: 0.2453871964271106
Test score: 0.24046127866500366
              precision    recall  f1-score   support

       Under       0.88      0.96      0.92     26725
        Over       0.45      0.21      0.28      4420

    accuracy                           0.85     31145
   macro avg       0.66      0.58      0.60     31145
weighted avg       0.82      0.85      0.83     31145

Time Spent: 4817.205692529678




GCN(
  (convM): Sequential(
    (0): NNNConv(
    (mlp): Sequential(
      (0): Linear(in_features=546, out_features=12, bias=True)
      (1): ReLU()
      (2): Linear(in_features=12, out_features=12, bias=True)
    )
  )
    (1): ReLU(inplace=True)
    (2): Dropout(p=0.1, inplace=False)
  )
  (convA): Sequential(
    (0): NNNConv(
    (mlp): Sequential(
      (0): Linear(in_features=546, out_features=12, bias=True)
      (1): ReLU()
      (2): Linear(in_features=12, out_features=12, bias=True)
    )
  )
    (1): ReLU(inplace=True)
    (2): Dropout(p=0.1, inplace=False)
  )
  (linS): Sequential(
    (0): Linear(273, 12, bias=True)
    (1): ReLU(inplace=True)
    (2): Dropout(p=0.1, inplace=False)
  )
  (seq): Sequential(
    (0): Linear(36, 12, bias=True)
    (1): ReLU(inplace=True)
    (2): Dropout(p=0.1, inplace=False)
    (3): Linear(12, 1, bias=True)
  )
) 17185
Start learning
Epoch  1: Train Loss -0.122488, Valid Loss -0.212476, Train R2 0.224902, Valid R2 0.212175
Epoch  2: Train Loss -0.210350, Valid Loss -0.222229, Train R2 0.240785, Valid R2 0.224668
Epoch  3: Train Loss -0.226786, Valid Loss -0.234293, Train R2 0.258617, Valid R2 0.236372
Epoch  4: Train Loss -0.234318, Valid Loss -0.231501, Train R2 0.255709, Valid R2 0.230738
…
