              total        used        free      shared  buff/cache   available
Mem:         128678       27774       68125         256       32778       99434
Swap:          2047         163        1884

Time spent: 1189.034966468811
GCN(
  (convM): Sequential(
    (0): NNNConv(
    (mlp): Sequential(
      (0): Linear(in_features=20, out_features=64, bias=True)
      (1): ReLU()
      (2): Linear(in_features=64, out_features=64, bias=True)
    )
  )
    (1): ReLU(inplace=True)
    (2): Dropout(p=0.25, inplace=False)
  )
  (convA): Sequential(
    (0): NNNConv(
    (mlp): Sequential(
      (0): Linear(in_features=20, out_features=64, bias=True)
      (1): ReLU()
      (2): Linear(in_features=64, out_features=64, bias=True)
    )
  )
    (1): ReLU(inplace=True)
    (2): Dropout(p=0.2, inplace=False)
  )
  (linS): Sequential(
    (0): Linear(10, 64, bias=True)
    (1): ReLU(inplace=True)
    (2): Dropout(p=0.2, inplace=False)
  )
  (seq): Sequential(
    (0): Linear(192, 64, bias=True)
    (1): ReLU(inplace=True)
    (2): Dropout(p=0.2, inplace=False)
    (3): Linear(64, 1, bias=True)
  )
) 24129
Start learning
Epoch  1: Train Loss -0.152599, Valid Loss -0.201691, Train R2 0.208876, Valid R2 0.203801
Epoch  2: Train Loss -0.203119, Valid Loss -0.210155, Train R2 0.215934, Valid R2 0.210948
Epoch  3: Train Loss -0.207599, Valid Loss -0.216642, Train R2 0.224318, Valid R2 0.218011
Epoch  4: Train Loss -0.212988, Valid Loss -0.217369, Train R2 0.225960, Valid R2 0.219301
…
Epoch 69: Train Loss -0.258481 , Valid Loss -0.230684 , Train R2 0.271782, Valid R2 0.231591
-----------------------------------
Best val R2: 0.23833656308099194
Test score: 0.2321949128603643
              precision    recall  f1-score   support

       Under       0.88      0.96      0.92     26725
        Over       0.45      0.18      0.26      4420

    accuracy                           0.85     31145
   macro avg       0.66      0.57      0.59     31145
weighted avg       0.82      0.85      0.82     31145

Time Spent: 4205.858145236969




GCN(
  (convM): Sequential(
    (0): NNNConv(
    (mlp): Sequential(
      (0): Linear(in_features=20, out_features=32, bias=True)
      (1): ReLU()
      (2): Linear(in_features=32, out_features=32, bias=True)
    )
  )
    (1): ReLU(inplace=True)
    (2): Dropout(p=0.1, inplace=False)
  )
  (convA): Sequential(
    (0): NNNConv(
    (mlp): Sequential(
      (0): Linear(in_features=20, out_features=32, bias=True)
      (1): ReLU()
      (2): Linear(in_features=32, out_features=32, bias=True)
    )
  )
    (1): ReLU(inplace=True)
    (2): Dropout(p=0.1, inplace=False)
  )
  (linS): Sequential(
    (0): Linear(10, 32, bias=True)
    (1): ReLU(inplace=True)
    (2): Dropout(p=0.1, inplace=False)
  )
  (seq): Sequential(
    (0): Linear(96, 48, bias=True)
    (1): ReLU(inplace=True)
    (2): Dropout(p=0.2, inplace=False)
    (3): Linear(48, 1, bias=True)
  )
) 8513
Start learning
Epoch  1: Train Loss -0.103653, Valid Loss -0.200880, Train R2 0.205704, Valid R2 0.201391
Epoch  2: Train Loss -0.197899, Valid Loss -0.206663, Train R2 0.212813, Valid R2 0.207023
Epoch  3: Train Loss -0.205300, Valid Loss -0.213674, Train R2 0.221617, Valid R2 0.214578
Epoch  4: Train Loss -0.207024, Valid Loss -0.209700, Train R2 0.214934, Valid R2 0.208975
…
Epoch 96: Train Loss -0.250321 , Valid Loss -0.236043 , Train R2 0.262023, Valid R2 0.235548
-----------------------------------
Best val R2: 0.2369698454675233
Test score: 0.23303978228664335
              precision    recall  f1-score   support

       Under       0.88      0.96      0.92     26725
        Over       0.44      0.19      0.26      4420

    accuracy                           0.85     31145
   macro avg       0.66      0.57      0.59     31145
weighted avg       0.81      0.85      0.82     31145

Time Spent: 7284.132958889008




GCN(
  (convM): Sequential(
    (0): NNNConv(
    (mlp): Sequential(
      (0): Linear(in_features=20, out_features=16, bias=True)
      (1): ReLU()
      (2): Linear(in_features=16, out_features=16, bias=True)
    )
  )
    (1): ReLU(inplace=True)
    (2): Dropout(p=0.1, inplace=False)
  )
  (convA): Sequential(
    (0): NNNConv(
    (mlp): Sequential(
      (0): Linear(in_features=20, out_features=16, bias=True)
      (1): ReLU()
      (2): Linear(in_features=16, out_features=16, bias=True)
    )
  )
    (1): ReLU(inplace=True)
    (2): Dropout(p=0.1, inplace=False)
  )
  (linS): Sequential(
    (0): Linear(10, 16, bias=True)
    (1): ReLU(inplace=True)
    (2): Dropout(p=0.1, inplace=False)
  )
  (seq): Sequential(
    (0): Linear(48, 16, bias=True)
    (1): ReLU(inplace=True)
    (2): Dropout(p=0.1, inplace=False)
    (3): Linear(16, 1, bias=True)
  )
) 2193
Start learning
Epoch  1: Train Loss -0.006064, Valid Loss -0.188432, Train R2 0.194663, Valid R2 0.189887
Epoch  2: Train Loss -0.177973, Valid Loss -0.200364, Train R2 0.206073, Valid R2 0.201066
Epoch  3: Train Loss -0.185456, Valid Loss -0.204753, Train R2 0.212449, Valid R2 0.205660
Epoch  4: Train Loss -0.190680, Valid Loss -0.208384, Train R2 0.215363, Valid R2 0.208716
…
