              total        used        free      shared  buff/cache   available
Mem:         128678       27599       68318         256       32761       99609
Swap:          2047         163        1884

Time spent: 603.4531557559967
GCN(
  (convM): Sequential(
    (0): NNNConv(
    (mlp): Sequential(
      (0): Linear(in_features=18, out_features=64, bias=True)
      (1): ReLU()
      (2): Linear(in_features=64, out_features=64, bias=True)
    )
  )
    (1): ReLU(inplace=True)
    (2): Dropout(p=0.25, inplace=False)
  )
  (convA): Sequential(
    (0): NNNConv(
    (mlp): Sequential(
      (0): Linear(in_features=18, out_features=64, bias=True)
      (1): ReLU()
      (2): Linear(in_features=64, out_features=64, bias=True)
    )
  )
    (1): ReLU(inplace=True)
    (2): Dropout(p=0.2, inplace=False)
  )
  (linS): Sequential(
    (0): Linear(9, 64, bias=True)
    (1): ReLU(inplace=True)
    (2): Dropout(p=0.2, inplace=False)
  )
  (seq): Sequential(
    (0): Linear(192, 64, bias=True)
    (1): ReLU(inplace=True)
    (2): Dropout(p=0.2, inplace=False)
    (3): Linear(64, 1, bias=True)
  )
) 23809
Start learning
Epoch  1: Train Loss -0.068287, Valid Loss -0.109836, Train R2 0.113920, Valid R2 0.108981
Epoch  2: Train Loss -0.116930, Valid Loss -0.128778, Train R2 0.135127, Valid R2 0.128204
Epoch  3: Train Loss -0.131329, Valid Loss -0.134410, Train R2 0.141087, Valid R2 0.133825
Epoch  4: Train Loss -0.133280, Valid Loss -0.135750, Train R2 0.143853, Valid R2 0.135517
…
Epoch 96: Train Loss -0.203862 , Valid Loss -0.161355 , Train R2 0.224278, Valid R2 0.162911
-----------------------------------
Best val R2: 0.16836604483593998
Test score: 0.165934885052074
              precision    recall  f1-score   support

       Under       0.87      0.98      0.92     26725
        Over       0.45      0.10      0.16      4420

    accuracy                           0.85     31145
   macro avg       0.66      0.54      0.54     31145
weighted avg       0.81      0.85      0.81     31145

Time Spent: 4681.8572545051575




GCN(
  (convM): Sequential(
    (0): NNNConv(
    (mlp): Sequential(
      (0): Linear(in_features=18, out_features=32, bias=True)
      (1): ReLU()
      (2): Linear(in_features=32, out_features=32, bias=True)
    )
  )
    (1): ReLU(inplace=True)
    (2): Dropout(p=0.1, inplace=False)
  )
  (convA): Sequential(
    (0): NNNConv(
    (mlp): Sequential(
      (0): Linear(in_features=18, out_features=32, bias=True)
      (1): ReLU()
      (2): Linear(in_features=32, out_features=32, bias=True)
    )
  )
    (1): ReLU(inplace=True)
    (2): Dropout(p=0.1, inplace=False)
  )
  (linS): Sequential(
    (0): Linear(9, 32, bias=True)
    (1): ReLU(inplace=True)
    (2): Dropout(p=0.1, inplace=False)
  )
  (seq): Sequential(
    (0): Linear(96, 48, bias=True)
    (1): ReLU(inplace=True)
    (2): Dropout(p=0.2, inplace=False)
    (3): Linear(48, 1, bias=True)
  )
) 8353
Start learning
Epoch  1: Train Loss -0.029688, Valid Loss -0.109500, Train R2 0.114017, Valid R2 0.108785
Epoch  2: Train Loss -0.112320, Valid Loss -0.124512, Train R2 0.131615, Valid R2 0.125072
Epoch  3: Train Loss -0.122633, Valid Loss -0.134033, Train R2 0.139101, Valid R2 0.133100
Epoch  4: Train Loss -0.131105, Valid Loss -0.129546, Train R2 0.135923, Valid R2 0.129054
…
