              total        used        free      shared  buff/cache   available
Mem:         128678       71360       24408         256       32909       55848
Swap:          2047         163        1884

Time spent: 960.5204067230225
GCN(
  (convM): Sequential(
    (0): NNNConv(
    (mlp): Sequential(
      (0): Linear(in_features=530, out_features=16, bias=True)
      (1): ReLU()
      (2): Linear(in_features=16, out_features=16, bias=True)
    )
  )
    (1): ReLU(inplace=True)
    (2): Dropout(p=0.1, inplace=False)
  )
  (convA): Sequential(
    (0): NNNConv(
    (mlp): Sequential(
      (0): Linear(in_features=530, out_features=16, bias=True)
      (1): ReLU()
      (2): Linear(in_features=16, out_features=16, bias=True)
    )
  )
    (1): ReLU(inplace=True)
    (2): Dropout(p=0.1, inplace=False)
  )
  (linS): Sequential(
    (0): Linear(265, 16, bias=True)
    (1): ReLU(inplace=True)
    (2): Dropout(p=0.1, inplace=False)
  )
  (seq): Sequential(
    (0): Linear(48, 16, bias=True)
    (1): ReLU(inplace=True)
    (2): Dropout(p=0.2, inplace=False)
    (3): Linear(16, 1, bias=True)
  )
) 22593
Start learning
Epoch  1: Train Loss -0.116831, Valid Loss -0.216193, Train R2 0.230375, Valid R2 0.218607
Epoch  2: Train Loss -0.202771, Valid Loss -0.227973, Train R2 0.248394, Valid R2 0.231015
Epoch  3: Train Loss -0.215398, Valid Loss -0.233680, Train R2 0.252977, Valid R2 0.233775
Epoch  4: Train Loss -0.222891, Valid Loss -0.235505, Train R2 0.264112, Valid R2 0.237509
…
Epoch 36: Train Loss -0.335954 , Valid Loss -0.205434 , Train R2 0.381089, Valid R2 0.217306
-----------------------------------
Best val R2: 0.24560468988088913
Test score: 0.23839537897965601
              precision    recall  f1-score   support

       Under       0.88      0.97      0.92     26725
        Over       0.48      0.19      0.27      4420

    accuracy                           0.86     31145
   macro avg       0.68      0.58      0.60     31145
weighted avg       0.82      0.86      0.83     31145

Time Spent: 4715.45671415329




GCN(
  (convM): Sequential(
    (0): NNNConv(
    (mlp): Sequential(
      (0): Linear(in_features=530, out_features=12, bias=True)
      (1): ReLU()
      (2): Linear(in_features=12, out_features=12, bias=True)
    )
  )
    (1): ReLU(inplace=True)
    (2): Dropout(p=0.1, inplace=False)
  )
  (convA): Sequential(
    (0): NNNConv(
    (mlp): Sequential(
      (0): Linear(in_features=530, out_features=12, bias=True)
      (1): ReLU()
      (2): Linear(in_features=12, out_features=12, bias=True)
    )
  )
    (1): ReLU(inplace=True)
    (2): Dropout(p=0.1, inplace=False)
  )
  (linS): Sequential(
    (0): Linear(265, 12, bias=True)
    (1): ReLU(inplace=True)
    (2): Dropout(p=0.1, inplace=False)
  )
  (seq): Sequential(
    (0): Linear(36, 16, bias=True)
    (1): ReLU(inplace=True)
    (2): Dropout(p=0.1, inplace=False)
    (3): Linear(16, 1, bias=True)
  )
) 16857
Start learning
Epoch  1: Train Loss -0.125642, Valid Loss -0.216828, Train R2 0.229156, Valid R2 0.215795
Epoch  2: Train Loss -0.216082, Valid Loss -0.224864, Train R2 0.244194, Valid R2 0.226216
Epoch  3: Train Loss -0.228024, Valid Loss -0.235990, Train R2 0.257710, Valid R2 0.237577
Epoch  4: Train Loss -0.234103, Valid Loss -0.225206, Train R2 0.245868, Valid R2 0.223256
…
