              total        used        free      shared  buff/cache   available
Mem:         128678       72699       16155         254       39823       54511
Swap:          2047         180        1867

Time spent: 1077.74351811409
GCN(
  (convM): Sequential(
    (0): NNNConv(
    (mlp): Sequential(
      (0): Linear(in_features=546, out_features=16, bias=True)
      (1): ReLU()
      (2): Linear(in_features=16, out_features=16, bias=True)
    )
  )
    (1): ReLU(inplace=True)
    (2): Dropout(p=0.1, inplace=False)
  )
  (convA): Sequential(
    (0): NNNConv(
    (mlp): Sequential(
      (0): Linear(in_features=546, out_features=16, bias=True)
      (1): ReLU()
      (2): Linear(in_features=16, out_features=16, bias=True)
    )
  )
    (1): ReLU(inplace=True)
    (2): Dropout(p=0.1, inplace=False)
  )
  (linS): Sequential(
    (0): Linear(273, 16, bias=True)
    (1): ReLU(inplace=True)
    (2): Dropout(p=0.1, inplace=False)
  )
  (seq): Sequential(
    (0): Linear(48, 16, bias=True)
    (1): ReLU(inplace=True)
    (2): Dropout(p=0.2, inplace=False)
    (3): Linear(16, 1, bias=True)
  )
) 23233
Start learning
Epoch  1: Train Loss -0.126963, Valid Loss -0.206019, Train R2 0.221309, Valid R2 0.207252
Epoch  2: Train Loss -0.206196, Valid Loss -0.233809, Train R2 0.249503, Valid R2 0.232751
Epoch  3: Train Loss -0.222823, Valid Loss -0.226513, Train R2 0.247781, Valid R2 0.225791
Epoch  4: Train Loss -0.230535, Valid Loss -0.239253, Train R2 0.268188, Valid R2 0.241540
…
Epoch 30: Train Loss -0.329160 , Valid Loss -0.225317 , Train R2 0.368372, Valid R2 0.230684
-----------------------------------
Best val R2: 0.2485377533018499
Test score: 0.24569263662460428
              precision    recall  f1-score   support

       Under       0.88      0.96      0.92     26725
        Over       0.46      0.22      0.30      4420

    accuracy                           0.85     31145
   macro avg       0.67      0.59      0.61     31145
weighted avg       0.82      0.85      0.83     31145

Time Spent: 4295.426420450211




GCN(
  (convM): Sequential(
    (0): NNNConv(
    (mlp): Sequential(
      (0): Linear(in_features=546, out_features=12, bias=True)
      (1): ReLU()
      (2): Linear(in_features=12, out_features=12, bias=True)
    )
  )
    (1): ReLU(inplace=True)
    (2): Dropout(p=0.1, inplace=False)
  )
  (convA): Sequential(
    (0): NNNConv(
    (mlp): Sequential(
      (0): Linear(in_features=546, out_features=12, bias=True)
      (1): ReLU()
      (2): Linear(in_features=12, out_features=12, bias=True)
    )
  )
    (1): ReLU(inplace=True)
    (2): Dropout(p=0.1, inplace=False)
  )
  (linS): Sequential(
    (0): Linear(273, 12, bias=True)
    (1): ReLU(inplace=True)
    (2): Dropout(p=0.1, inplace=False)
  )
  (seq): Sequential(
    (0): Linear(36, 12, bias=True)
    (1): ReLU(inplace=True)
    (2): Dropout(p=0.1, inplace=False)
    (3): Linear(12, 1, bias=True)
  )
) 17185
Start learning
Epoch  1: Train Loss -0.115071, Valid Loss -0.213642, Train R2 0.227414, Valid R2 0.214783
Epoch  2: Train Loss -0.206745, Valid Loss -0.228866, Train R2 0.247434, Valid R2 0.230980
Epoch  3: Train Loss -0.221171, Valid Loss -0.233425, Train R2 0.254932, Valid R2 0.236581
Epoch  4: Train Loss -0.232563, Valid Loss -0.237928, Train R2 0.265084, Valid R2 0.240984
…
Epoch 32: Train Loss -0.323983 , Valid Loss -0.215185 , Train R2 0.366550, Valid R2 0.225256
-----------------------------------
Best val R2: 0.24718886642617055
Test score: 0.2439472407670169
              precision    recall  f1-score   support

       Under       0.88      0.96      0.92     26725
        Over       0.48      0.21      0.29      4420

    accuracy                           0.86     31145
   macro avg       0.68      0.58      0.60     31145
weighted avg       0.82      0.86      0.83     31145

Time Spent: 7700.760324001312




GCN(
  (convM): Sequential(
    (0): NNNConv(
    (mlp): Sequential(
      (0): Linear(in_features=546, out_features=8, bias=True)
      (1): ReLU()
      (2): Linear(in_features=8, out_features=8, bias=True)
    )
  )
    (1): ReLU(inplace=True)
    (2): Dropout(p=0.1, inplace=False)
  )
  (convA): Sequential(
    (0): NNNConv(
    (mlp): Sequential(
      (0): Linear(in_features=546, out_features=8, bias=True)
      (1): ReLU()
      (2): Linear(in_features=8, out_features=8, bias=True)
    )
  )
    (1): ReLU(inplace=True)
    (2): Dropout(p=0.1, inplace=False)
  )
  (linS): Sequential(
    (0): Linear(273, 8, bias=True)
    (1): ReLU(inplace=True)
    (2): Dropout(p=0.1, inplace=False)
  )
  (seq): Sequential(
    (0): Linear(24, 12, bias=True)
    (1): ReLU(inplace=True)
    (2): Dropout(p=0.1, inplace=False)
    (3): Linear(12, 1, bias=True)
  )
) 11401
Start learning
Epoch  1: Train Loss -0.066827, Valid Loss -0.194176, Train R2 0.207242, Valid R2 0.197336
Epoch  2: Train Loss -0.192637, Valid Loss -0.215168, Train R2 0.229789, Valid R2 0.216020
Epoch  3: Train Loss -0.204176, Valid Loss -0.223878, Train R2 0.239998, Valid R2 0.225200
Epoch  4: Train Loss -0.211287, Valid Loss -0.223290, Train R2 0.244100, Valid R2 0.227620
…
