              total        used        free      shared  buff/cache   available
Mem:         128678       28950       58984         254       40743       98261
Swap:          2047         180        1867

Time spent: 603.2539808750153
GCN(
  (convM): Sequential(
    (0): NNNConv(
    (mlp): Sequential(
      (0): Linear(in_features=18, out_features=64, bias=True)
      (1): ReLU()
      (2): Linear(in_features=64, out_features=64, bias=True)
    )
  )
    (1): ReLU(inplace=True)
    (2): Dropout(p=0.25, inplace=False)
  )
  (convA): Sequential(
    (0): NNNConv(
    (mlp): Sequential(
      (0): Linear(in_features=18, out_features=64, bias=True)
      (1): ReLU()
      (2): Linear(in_features=64, out_features=64, bias=True)
    )
  )
    (1): ReLU(inplace=True)
    (2): Dropout(p=0.2, inplace=False)
  )
  (linS): Sequential(
    (0): Linear(9, 64, bias=True)
    (1): ReLU(inplace=True)
    (2): Dropout(p=0.2, inplace=False)
  )
  (seq): Sequential(
    (0): Linear(192, 64, bias=True)
    (1): ReLU(inplace=True)
    (2): Dropout(p=0.2, inplace=False)
    (3): Linear(64, 1, bias=True)
  )
) 23809
Start learning
Epoch  1: Train Loss -0.057940, Valid Loss -0.113047, Train R2 0.118708, Valid R2 0.112722
Epoch  2: Train Loss -0.115657, Valid Loss -0.122224, Train R2 0.129060, Valid R2 0.121675
Epoch  3: Train Loss -0.127687, Valid Loss -0.132685, Train R2 0.141951, Valid R2 0.132568
Epoch  4: Train Loss -0.131350, Valid Loss -0.137167, Train R2 0.146226, Valid R2 0.137169
…
Epoch 84: Train Loss -0.199500 , Valid Loss -0.160360 , Train R2 0.218055, Valid R2 0.160825
-----------------------------------
Best val R2: 0.16900884635287983
Test score: 0.16996447033021722
              precision    recall  f1-score   support

       Under       0.87      0.98      0.92     26725
        Over       0.48      0.10      0.16      4420

    accuracy                           0.86     31145
   macro avg       0.67      0.54      0.54     31145
weighted avg       0.81      0.86      0.81     31145

Time Spent: 4127.002022981644




GCN(
  (convM): Sequential(
    (0): NNNConv(
    (mlp): Sequential(
      (0): Linear(in_features=18, out_features=32, bias=True)
      (1): ReLU()
      (2): Linear(in_features=32, out_features=32, bias=True)
    )
  )
    (1): ReLU(inplace=True)
    (2): Dropout(p=0.1, inplace=False)
  )
  (convA): Sequential(
    (0): NNNConv(
    (mlp): Sequential(
      (0): Linear(in_features=18, out_features=32, bias=True)
      (1): ReLU()
      (2): Linear(in_features=32, out_features=32, bias=True)
    )
  )
    (1): ReLU(inplace=True)
    (2): Dropout(p=0.1, inplace=False)
  )
  (linS): Sequential(
    (0): Linear(9, 32, bias=True)
    (1): ReLU(inplace=True)
    (2): Dropout(p=0.1, inplace=False)
  )
  (seq): Sequential(
    (0): Linear(96, 48, bias=True)
    (1): ReLU(inplace=True)
    (2): Dropout(p=0.2, inplace=False)
    (3): Linear(48, 1, bias=True)
  )
) 8353
Start learning
Epoch  1: Train Loss -0.020746, Valid Loss -0.113147, Train R2 0.117121, Valid R2 0.112867
Epoch  2: Train Loss -0.110393, Valid Loss -0.121031, Train R2 0.128431, Valid R2 0.121826
Epoch  3: Train Loss -0.119054, Valid Loss -0.128787, Train R2 0.134602, Valid R2 0.128122
Epoch  4: Train Loss -0.127154, Valid Loss -0.131838, Train R2 0.139594, Valid R2 0.131911
…
Epoch 91: Train Loss -0.186229 , Valid Loss -0.162649 , Train R2 0.203976, Valid R2 0.163830
-----------------------------------
Best val R2: 0.16647488977038938
Test score: 0.16800947354601425
              precision    recall  f1-score   support

       Under       0.87      0.98      0.92     26725
        Over       0.44      0.10      0.16      4420

    accuracy                           0.85     31145
   macro avg       0.66      0.54      0.54     31145
weighted avg       0.81      0.85      0.81     31145

Time Spent: 6955.523791313171




GCN(
  (convM): Sequential(
    (0): NNNConv(
    (mlp): Sequential(
      (0): Linear(in_features=18, out_features=16, bias=True)
      (1): ReLU()
      (2): Linear(in_features=16, out_features=16, bias=True)
    )
  )
    (1): ReLU(inplace=True)
    (2): Dropout(p=0.1, inplace=False)
  )
  (convA): Sequential(
    (0): NNNConv(
    (mlp): Sequential(
      (0): Linear(in_features=18, out_features=16, bias=True)
      (1): ReLU()
      (2): Linear(in_features=16, out_features=16, bias=True)
    )
  )
    (1): ReLU(inplace=True)
    (2): Dropout(p=0.1, inplace=False)
  )
  (linS): Sequential(
    (0): Linear(9, 16, bias=True)
    (1): ReLU(inplace=True)
    (2): Dropout(p=0.1, inplace=False)
  )
  (seq): Sequential(
    (0): Linear(48, 16, bias=True)
    (1): ReLU(inplace=True)
    (2): Dropout(p=0.1, inplace=False)
    (3): Linear(16, 1, bias=True)
  )
) 2113
Start learning
Epoch  1: Train Loss 0.021156, Valid Loss -0.097545, Train R2 0.098679, Valid R2 0.097014
Epoch  2: Train Loss -0.097748, Valid Loss -0.113231, Train R2 0.117809, Valid R2 0.113315
Epoch  3: Train Loss -0.114523, Valid Loss -0.125709, Train R2 0.130257, Valid R2 0.124803
Epoch  4: Train Loss -0.121829, Valid Loss -0.128943, Train R2 0.133588, Valid R2 0.127705
…
