              total        used        free      shared  buff/cache   available
Mem:         128678       29502       66386         256       32789       97706
Swap:          2047         163        1884

Time spent: 741.7496902942657
GCN(
  (convM): Sequential(
    (0): NNNConv(
    (mlp): Sequential(
      (0): Linear(in_features=34, out_features=64, bias=True)
      (1): ReLU()
      (2): Linear(in_features=64, out_features=64, bias=True)
    )
  )
    (1): ReLU(inplace=True)
    (2): Dropout(p=0.25, inplace=False)
  )
  (convA): Sequential(
    (0): NNNConv(
    (mlp): Sequential(
      (0): Linear(in_features=34, out_features=64, bias=True)
      (1): ReLU()
      (2): Linear(in_features=64, out_features=64, bias=True)
    )
  )
    (1): ReLU(inplace=True)
    (2): Dropout(p=0.2, inplace=False)
  )
  (linS): Sequential(
    (0): Linear(17, 64, bias=True)
    (1): ReLU(inplace=True)
    (2): Dropout(p=0.2, inplace=False)
  )
  (seq): Sequential(
    (0): Linear(192, 64, bias=True)
    (1): ReLU(inplace=True)
    (2): Dropout(p=0.2, inplace=False)
    (3): Linear(64, 1, bias=True)
  )
) 26369
Start learning
Epoch  1: Train Loss -0.067259, Valid Loss -0.130281, Train R2 0.138312, Valid R2 0.130752
Epoch  2: Train Loss -0.133216, Valid Loss -0.142385, Train R2 0.150817, Valid R2 0.142893
Epoch  3: Train Loss -0.142275, Valid Loss -0.148343, Train R2 0.157053, Valid R2 0.147108
Epoch  4: Train Loss -0.147315, Valid Loss -0.147813, Train R2 0.156337, Valid R2 0.147137
…
Epoch 53: Train Loss -0.214133 , Valid Loss -0.168239 , Train R2 0.240231, Valid R2 0.168897
-----------------------------------
Best val R2: 0.17026123084191203
Test score: 0.17075345479797788
              precision    recall  f1-score   support

       Under       0.87      0.98      0.92     26725
        Over       0.45      0.09      0.15      4420

    accuracy                           0.86     31145
   macro avg       0.66      0.54      0.53     31145
weighted avg       0.81      0.86      0.81     31145

Time Spent: 3288.564311027527




GCN(
  (convM): Sequential(
    (0): NNNConv(
    (mlp): Sequential(
      (0): Linear(in_features=34, out_features=32, bias=True)
      (1): ReLU()
      (2): Linear(in_features=32, out_features=32, bias=True)
    )
  )
    (1): ReLU(inplace=True)
    (2): Dropout(p=0.1, inplace=False)
  )
  (convA): Sequential(
    (0): NNNConv(
    (mlp): Sequential(
      (0): Linear(in_features=34, out_features=32, bias=True)
      (1): ReLU()
      (2): Linear(in_features=32, out_features=32, bias=True)
    )
  )
    (1): ReLU(inplace=True)
    (2): Dropout(p=0.1, inplace=False)
  )
  (linS): Sequential(
    (0): Linear(17, 32, bias=True)
    (1): ReLU(inplace=True)
    (2): Dropout(p=0.1, inplace=False)
  )
  (seq): Sequential(
    (0): Linear(96, 48, bias=True)
    (1): ReLU(inplace=True)
    (2): Dropout(p=0.2, inplace=False)
    (3): Linear(48, 1, bias=True)
  )
) 9633
Start learning
Epoch  1: Train Loss -0.040355, Valid Loss -0.122876, Train R2 0.128282, Valid R2 0.122252
Epoch  2: Train Loss -0.125034, Valid Loss -0.133995, Train R2 0.141786, Valid R2 0.133849
Epoch  3: Train Loss -0.136509, Valid Loss -0.140067, Train R2 0.149614, Valid R2 0.140808
Epoch  4: Train Loss -0.141000, Valid Loss -0.144816, Train R2 0.156094, Valid R2 0.146009
…
Epoch 63: Train Loss -0.206000 , Valid Loss -0.170956 , Train R2 0.220807, Valid R2 0.172023
-----------------------------------
Best val R2: 0.17291264905316617
Test score: 0.17316810200094257
              precision    recall  f1-score   support

       Under       0.87      0.98      0.92     26725
        Over       0.45      0.09      0.15      4420

    accuracy                           0.85     31145
   macro avg       0.66      0.54      0.54     31145
weighted avg       0.81      0.85      0.81     31145

Time Spent: 5527.916968584061




GCN(
  (convM): Sequential(
    (0): NNNConv(
    (mlp): Sequential(
      (0): Linear(in_features=34, out_features=16, bias=True)
      (1): ReLU()
      (2): Linear(in_features=16, out_features=16, bias=True)
    )
  )
    (1): ReLU(inplace=True)
    (2): Dropout(p=0.1, inplace=False)
  )
  (convA): Sequential(
    (0): NNNConv(
    (mlp): Sequential(
      (0): Linear(in_features=34, out_features=16, bias=True)
      (1): ReLU()
      (2): Linear(in_features=16, out_features=16, bias=True)
    )
  )
    (1): ReLU(inplace=True)
    (2): Dropout(p=0.1, inplace=False)
  )
  (linS): Sequential(
    (0): Linear(17, 16, bias=True)
    (1): ReLU(inplace=True)
    (2): Dropout(p=0.1, inplace=False)
  )
  (seq): Sequential(
    (0): Linear(48, 16, bias=True)
    (1): ReLU(inplace=True)
    (2): Dropout(p=0.1, inplace=False)
    (3): Linear(16, 1, bias=True)
  )
) 2753
Start learning
Epoch  1: Train Loss 0.038320, Valid Loss -0.097737, Train R2 0.100978, Valid R2 0.098126
Epoch  2: Train Loss -0.107344, Valid Loss -0.124714, Train R2 0.131040, Valid R2 0.124488
Epoch  3: Train Loss -0.122160, Valid Loss -0.135643, Train R2 0.141162, Valid R2 0.134815
Epoch  4: Train Loss -0.129501, Valid Loss -0.137055, Train R2 0.145564, Valid R2 0.137277
…
