              total        used        free      shared  buff/cache   available
Mem:         128678       71289       17569         254       39819       55921
Swap:          2047         180        1867

Time spent: 970.9337658882141
GCN(
  (convM): Sequential(
    (0): NNNConv(
    (mlp): Sequential(
      (0): Linear(in_features=530, out_features=16, bias=True)
      (1): ReLU()
      (2): Linear(in_features=16, out_features=16, bias=True)
    )
  )
    (1): ReLU(inplace=True)
    (2): Dropout(p=0.1, inplace=False)
  )
  (convA): Sequential(
    (0): NNNConv(
    (mlp): Sequential(
      (0): Linear(in_features=530, out_features=16, bias=True)
      (1): ReLU()
      (2): Linear(in_features=16, out_features=16, bias=True)
    )
  )
    (1): ReLU(inplace=True)
    (2): Dropout(p=0.1, inplace=False)
  )
  (linS): Sequential(
    (0): Linear(265, 16, bias=True)
    (1): ReLU(inplace=True)
    (2): Dropout(p=0.1, inplace=False)
  )
  (seq): Sequential(
    (0): Linear(48, 16, bias=True)
    (1): ReLU(inplace=True)
    (2): Dropout(p=0.2, inplace=False)
    (3): Linear(16, 1, bias=True)
  )
) 22593
Start learning
Epoch  1: Train Loss -0.097105, Valid Loss -0.213183, Train R2 0.230734, Valid R2 0.216240
Epoch  2: Train Loss -0.206639, Valid Loss -0.224786, Train R2 0.247821, Valid R2 0.226912
Epoch  3: Train Loss -0.217451, Valid Loss -0.233102, Train R2 0.262471, Valid R2 0.237407
Epoch  4: Train Loss -0.226613, Valid Loss -0.240332, Train R2 0.268922, Valid R2 0.240253
…
Epoch 24: Train Loss -0.305642 , Valid Loss -0.227971 , Train R2 0.336562, Valid R2 0.233282
-----------------------------------
Best val R2: 0.24292265728289952
Test score: 0.23782306636335893
              precision    recall  f1-score   support

       Under       0.88      0.97      0.92     26725
        Over       0.48      0.17      0.25      4420

    accuracy                           0.86     31145
   macro avg       0.68      0.57      0.58     31145
weighted avg       0.82      0.86      0.82     31145

Time Spent: 3533.4693133831024




GCN(
  (convM): Sequential(
    (0): NNNConv(
    (mlp): Sequential(
      (0): Linear(in_features=530, out_features=12, bias=True)
      (1): ReLU()
      (2): Linear(in_features=12, out_features=12, bias=True)
    )
  )
    (1): ReLU(inplace=True)
    (2): Dropout(p=0.1, inplace=False)
  )
  (convA): Sequential(
    (0): NNNConv(
    (mlp): Sequential(
      (0): Linear(in_features=530, out_features=12, bias=True)
      (1): ReLU()
      (2): Linear(in_features=12, out_features=12, bias=True)
    )
  )
    (1): ReLU(inplace=True)
    (2): Dropout(p=0.1, inplace=False)
  )
  (linS): Sequential(
    (0): Linear(265, 12, bias=True)
    (1): ReLU(inplace=True)
    (2): Dropout(p=0.1, inplace=False)
  )
  (seq): Sequential(
    (0): Linear(36, 16, bias=True)
    (1): ReLU(inplace=True)
    (2): Dropout(p=0.1, inplace=False)
    (3): Linear(16, 1, bias=True)
  )
) 16857
Start learning
Epoch  1: Train Loss -0.139105, Valid Loss -0.209267, Train R2 0.223122, Valid R2 0.208801
Epoch  2: Train Loss -0.217463, Valid Loss -0.230635, Train R2 0.247633, Valid R2 0.229849
Epoch  3: Train Loss -0.229312, Valid Loss -0.231817, Train R2 0.258618, Valid R2 0.234980
Epoch  4: Train Loss -0.239944, Valid Loss -0.234484, Train R2 0.257915, Valid R2 0.233180
…
Epoch 27: Train Loss -0.313143 , Valid Loss -0.217417 , Train R2 0.348209, Valid R2 0.225359
-----------------------------------
Best val R2: 0.2459483512466346
Test score: 0.24149864231144458
              precision    recall  f1-score   support

       Under       0.88      0.96      0.92     26725
        Over       0.47      0.20      0.28      4420

    accuracy                           0.85     31145
   macro avg       0.67      0.58      0.60     31145
weighted avg       0.82      0.85      0.83     31145

Time Spent: 6384.243288516998
GCN(
  (convM): Sequential(
    (0): NNNConv(
    (mlp): Sequential(
      (0): Linear(in_features=530, out_features=8, bias=True)
      (1): ReLU()
      (2): Linear(in_features=8, out_features=8, bias=True)
    )
  )
    (1): ReLU(inplace=True)
    (2): Dropout(p=0.1, inplace=False)
  )
  (convA): Sequential(
    (0): NNNConv(
    (mlp): Sequential(
      (0): Linear(in_features=530, out_features=8, bias=True)
      (1): ReLU()
      (2): Linear(in_features=8, out_features=8, bias=True)
    )
  )
    (1): ReLU(inplace=True)
    (2): Dropout(p=0.1, inplace=False)
  )
  (linS): Sequential(
    (0): Linear(265, 8, bias=True)
    (1): ReLU(inplace=True)
    (2): Dropout(p=0.1, inplace=False)
  )
  (seq): Sequential(
    (0): Linear(24, 12, bias=True)
    (1): ReLU(inplace=True)
    (2): Dropout(p=0.1, inplace=False)
    (3): Linear(12, 1, bias=True)
  )
) 11081
Start learning
Epoch  1: Train Loss -0.098642, Valid Loss -0.211643, Train R2 0.225848, Valid R2 0.212852
Epoch  2: Train Loss -0.209934, Valid Loss -0.227474, Train R2 0.244334, Valid R2 0.228615
Epoch  3: Train Loss -0.222769, Valid Loss -0.236320, Train R2 0.254675, Valid R2 0.236206
Epoch  4: Train Loss -0.232346, Valid Loss -0.238254, Train R2 0.263968, Valid R2 0.239658
…
